…
shook__', '_asdict', '_field_defaults', '_fields', '_make', '_replace', 'count', 'discount', 'index', 'is_first', 'is_last', 'is_mid', 'observation', 'reward', 'step_type']
******* Base Model info *******
Congestion values 0.7694422743849268
Wirelength values 0.1032317410204126
Density values 0.490696667348941
Finished placing all the nodes
Model: "policy_location_head"
_________________________________________________________________
 Layer (type)                Output Shape              Param #   
=================================================================
 dense_8 (Dense)             (1, 2048)                 67584     
                                                                 
 re_lu_7 (ReLU)              (1, 2048)                 0         
                                                                 
 reshape (Reshape)           (1, 8, 8, 32)             0         
                                                                 
 conv2d_transpose (Conv2DTra  (1, 16, 16, 16)          4624      
 nspose)                                                         
                                                                 
 re_lu_8 (ReLU)              (1, 16, 16, 16)           0         
                                                                 
 conv2d_transpose_1 (Conv2DT  (1, 32, 32, 8)           1160      
 ranspose)                                                       
                                                                 
 re_lu_9 (ReLU)              (1, 32, 32, 8)            0         
                                                                 
 conv2d_transpose_2 (Conv2DT  (1, 64, 64, 4)           292       
 ranspose)                                                       
                                                                 
 re_lu_10 (ReLU)             (1, 64, 64, 4)            0         
                                                                 
 conv2d_transpose_3 (Conv2DT  (1, 128, 128, 2)         74        
 ranspose)                                                       
                                                                 
 re_lu_11 (ReLU)             (1, 128, 128, 2)          0         
                                                                 
 conv2d_transpose_4 (Conv2DT  (1, 128, 128, 1)         19        
 ranspose)                                                       
                                                                 
 flatten (Flatten)           (1, 16384)                0         
                                                                 
=================================================================
Total params: 73,753
Trainable params: 73,753
Non-trainable params: 0
_________________________________________________________________
W1122 22:20:45.363511 139848445112704 plc_client.py:96] JSONDecode Error for GetMacroAndClusteredPortAdjacency 
 Expecting ',' delimiter: line 1 column 36545 (char 36544)
…
